snake-ai-pytorch-main/model/model.pth (torch, 17216 bytes, 4 tensors)

linear1.weight f4 [256, 11]
0.15673937 0.031525914 -0.18951847 -0.1273613 -0.07680057 0.16635464 0.21946995 -0.12140907
0.17160758 0.20068368 -0.08019964 -0.02944145 -0.05053741 -0.2993338 -0.26543498 0.24590112
0.1442181 -0.070797 0.1602698 -0.1486707 0.07260509 -0.18279985 -0.23027533 0.14734831
-0.03127588 0.21893007 -0.02450286 0.089011535 0.055211425 -0.21588734 0.04428281 -0.19769217
0.18089259 0.37603775 -0.12651448 -0.09143586 -0.1031333 0.08475792 -0.2795678 0.33823645
0.06431099 0.12659657 -0.11882719 0.08770763 0.3161754 0.07037222 0.21281171 0.04752785
0.24608499 -0.18515703 -0.29185092 -0.1075423 -0.081323 -0.25072318 0.2193945 -0.11913371
-0.12573609 -0.16214372 -0.24499415 0.03602996 0.17884625 0.2704673 -0.029445857 -0.0816738
-0.34637526 0.13026369 0.018538645 0.27151236 -0.054062318 -0.21435228 0.029499471 0.21881567
-0.31473136 0.13427956 -0.0770975 0.056795236 0.25822628 0.1361484 -0.27939788 -0.2681162
-0.15624167 -0.30125457 -0.023122825 -0.2805368 -0.042151272 0.11065401 0.000101190824 -0.2218645
-0.42304567 0.3702081 -0.022090668 0.28824565 0.066878386 -0.09194671 0.14939287 -0.043457408
-0.17918977 0.14463794 -0.15058276 -0.27771688 -0.17218792 0.09516735 -0.25064516 -0.048179805
-0.16050139 -0.09904077 -0.15085825 -0.27181146 0.08002939 -0.014008443 -0.13539697 -0.0077696037
-0.29140213 0.20156053 -0.090578616 0.11548617 0.036204327 0.2026794 -0.2705659 -0.0644108
0.26119992 0.08085368 0.2942602 0.16965963 0.03519753 -0.17252243 -0.266691 0.00030374274
0.14596993 -0.11884649 0.077368416 -0.17013988 -0.1639533 0.366243 0.054560043 -0.041486666
0.19792388 0.15245208 0.107192405 0.059308182 -0.14826833 0.25083342 0.21452825 -0.014103577
0.24633798 0.019517059 0.06028985 0.08729478 0.049451534 -0.20438677 0.14024377 -0.11204515
-0.17879708 0.056131694 0.3707974 0.3814001 -0.18213868 0.15295081 -0.20087326 0.10354734
0.123813614 0.29954946 0.20553413 -0.16788569 0.11210178 0.19575487 -0.12514961 -0.21844445
0.2075431 0.23957646 0.08050921 0.0065008593 -0.032874852 -0.12308163 0.30758774 -0.06578809
0.116011955 -0.23835842 -0.15457149 0.25320247 -0.17148063 0.22035407 -0.063194185 -0.07203924
-0.29942554 -0.19327842 -0.26311713 0.20650662 0.3356531 -0.3267979 -0.07010122 0.049900297
0.18504047 -0.19111751 -0.29315293 -0.050655965 -0.15555571 0.29287472 0.16056478 0.30912876
0.191271 0.026634652 0.064899586 0.20296511 0.018106101 0.36705822 -0.2579643 0.03718485
-0.27036113 -0.17219983 -0.010273684 -0.094850294 0.21407531 -0.22265343 -0.2156083 -0.00040157395
-0.08236499 -0.2591186 0.23924544 0.17440991 -0.1650499 -0.22320692 0.0675237 -0.03063345
-0.18377507 -0.018213058 0.22154325 -0.27974147 -0.17849408 0.047122903 0.034041617 -0.11476653
-0.23883736 0.06612019 -0.18489282 0.1535532 -0.053299222 -0.19162759 0.14545228 -0.02333508
0.1330198 -0.20219839 -0.042268373 -0.22690438 0.1510788 -0.15274785 -0.2619113 -0.15724197
-0.25103414 0.2347228 -0.2447402 0.05593216 -0.20489284 -0.2557798 -0.061011996 -0.11220173
00000000: 4980 203e 5121 013d 2111 42be 006b 02be
00000010: 9e49 9dbd df58 2a3e bbbc 603e 52a5 f8bd
00000020: e6b9 2f3e 0680 4d3e b53f a4bd 322f f1bc
00000030: 5100 4fbd 4842 99be 18e7 87be 81cd 7b3e
00000040: e9ad 133e 04fe 90bd c41d 243e 223d 18be
00000050: fab1 943d e22f 3bbe 4ccd 6bbe 7ae2 163e
00000060: 231b 00bd 342f 603e 39ba c8bc ae4b b63d
00000070: 6025 623d 9211 5dbe e461 353d d16f 4abe
00000080: e83b 393e 0588 c03e 038d 01be b942 bbbd
00000090: 8d37 d3bd 8f95 ad3d 8323 8fbe 542d ad3e
000000a0: 7bb5 833d 88a2 013e ab5b f3bd 0fa0 b33d
000000b0: bee1 a13e 4f1f 903d 50eb 593e 90ac 423d
000000c0: b4fd 7b3e ce99 3dbe 7c6d 95be 233f dcbd
000000d0: ac8c a6bd ca5e 80be f4a8 603e 60fc f3bd
000000e0: f6c0 00be 0109 26be bfdf 7abe 2794 133d
000000f0: 7923 373e b17a 8a3e 7038 f1bc 9844 a7bd
00000100: 1958 b1be d863 053e 5bde 973c ab03 8b3e
00000110: 7370 5dbd 2a7f 5bbe e0a8 f13c 3711 603e
00000120: 7824 a1be 9580 093e 4be5 9dbd 1fa2 683d
00000130: 3c36 843e 7c6a 0b3e 3d0d 8fbe 8746 89be
00000140: d1fd 1fbe 0a3e 9abe 146c bdbc 85a2 8fbe
00000150: d0a6 2cbd 929e e23d 6936 d438 7330 63be
00000160: 7199 d8be eb8b bd3e 7df7 b4bc ef94 933e
00000170: 89f7 883d 8f4e bcbd 72fa 183e 6500 32bd
00000180: 867d 37be f81b 143e 5e32 1abe e830 8ebe
00000190: 0852 30be 19e7 c23d 9054 80be 3058 45bd
000001a0: 7a5a 24be e3d5 cabd 967a 1abe df2a 8bbe
000001b0: 73e6 a33d ab83 65bc 81a5 0abe 2998 febb
000001c0: a932 95be e265 4e3e 4881 b9bd 0384 ec3d
000001d0: fd4a 143d 308b 4f3e 9d87 8abe cfe9 83bd
000001e0: ffbb 853e 9d96 a53d 46a9 963e 41bb 2d3e
000001f0: 492b 103d b8a9 30be b98b 88be a93f 9f39
00000200: 2479 153e ca65 f3bd 5573 9e3d 2639 2ebe
00000210: 60e3 27be 3484 bb3e 5a7a 5f3d eced 29bd
00000220: 8fac 4a3e 661c 1c3e b187 db3d 23ed 723d
00000230: a7d3 17be 3d6d 803e 4bad 5b3e b012 67bc
00000240: 0640 7c3e 3de2 9f3c 7df2 763d 9bc7 b23d
00000250: b18d 4a3d c44a 51be 109c 0f3e ed77 e5bd
00000260: 9516 37be 59ea 653d 28d9 bd3e e046 c33e
00000270: 9082 3abe 239f 1c3e b8b1 4dbe a110 d43d
00000280: fe91 fd3d 8c5e 993e 8a77 523e 3aea 2bbe
00000290: 9e95 e53d f773 483e 3827 00be e7af 5fbe
000002a0: 2e86 543e 8853 753e 03e2 a43d 2905 d53b
000002b0: c8a7 06bd 3912 fcbd 247c 9d3e e8bb 86bd
000002c0: ad97 ed3d 3b14 74be fd47 1ebe c1a3 813e
000002d0: 9e98 2fbe 7fa4 613e f46b 81bd 4f89 93bd
000002e0: 4e4e 99be c7ea 45be 4ab7 86be 7976 533e
000002f0: b9da ab3e 0e52 a7be 3a91 8fbd 4164 4c3d
00000300: 407b 3d3e 4fb4 43be 2418 96be a17c 4fbd
00000310: ff49 1fbe adf3 953e 186b 243e 2046 9e3e
00000320: 8cdc 433e ea30 da3c 13ea 843d 16d6 4f3e
00000330: 3f53 943c 0eef bb3e e613 84be 244f 183d
00000340: c66c 8abe 2755 30be f452 28bc df40 c2bd
00000350: 8f36 5b3e 43ff 63be 6cc8 5cbe 588a d2b9
00000360: faae a8bd 31ab 84be c2fc 743e 8398 323e
00000370: d702 29be 5b90 64be de49 8a3d 00f3 fabc
00000380: 882f 3cbe 8d33 95bc 3cdc 623e 463a 8fbe
00000390: 27c7 36be f203 413d 396f 0b3d b70a ebbd
000003a0: c891 74be 066a 873d 8b54 3dbe 0d3d 1d3e
000003b0: 4950 5abd 063a 44be 71f1 143e 3629 bfbc
000003c0: 5836 083e 180d 4fbe 9a21 2dbd 9f59 68be
000003d0: 67b4 1a3e ef69 1cbe 3d19 86be 0a04 21be
000003e0: 8c87 80be 2c5b 703e 2d9d 7abe 1f19 653d
000003f0: 6ecf 51be 92f5 82be b7e7 79bd 05ca e5bd

linear1.bias f4 [256]
-0.21347502 0.30916345 0.07578664 0.33542067 0.12988064 0.23011869 0.026527513 -0.09836451
0.21053015 -0.26058775 0.11858164 -0.01658978 0.3438409 -0.21999891 0.011647303 -0.15505517
-0.2707553 -0.022011694 0.1775136 -0.05138896 -0.11723784 -0.2748885 -0.2292057 0.06063416
0.11309221 -0.2781718 -0.051005397 0.10840384 0.31140852 0.1847275 -0.096839875 -0.07964268
-0.08827594 0.32334635 0.06600853 -0.10093587 0.28802842 -0.02270027 0.2603144 0.3367212
0.26244527 -0.16684094 0.20777671 0.24905795 0.38227725 0.26353753 0.25460073 0.109852806
0.31770426 0.33138624 0.07749532 -0.02337843 0.24802129 0.00055992993 0.19739845 0.13047722
0.098789066 -0.10456448 0.2908209 -0.20423242 0.13847326 -0.2658403 0.26111302 0.27329
0.0932961 0.24950594 -0.015578446 -0.038893707 -0.008304357 0.031960823 -0.050092783 0.2945029
0.21769781 0.039160743 -0.0054151393 -0.23995443 -0.20045345 0.0702091 -0.2433649 -0.046416316
0.11631183 0.07320543 -0.089636676 -0.2548485 0.09071289 -0.08633178 -0.17490725 0.05013955
0.08143934 -0.24531169 -0.29009563 -0.25470805 -0.07690592 0.044193193 -0.2606755 0.25110933
-0.32583365 0.3318279 0.34826016 -0.15624781 0.31159553 0.07117033 -0.24801807 0.109406814
-0.007938795 0.16260268 0.13020357 -0.040925823 0.037035454 0.30325177 -0.23650107 -0.021909013
-0.17621881 -0.26785985 0.18509893 -0.07283725 -0.15113348 -0.28128842 0.00996918 -0.19047086
0.21216723 0.2531218 0.23958766 -0.044806596 0.017092688 -0.23531401 0.3244958 0.1255921
0.13321947 0.059614044 0.050370917 0.021614026 -0.27453265 -0.07312965 -0.1865853 0.31764227
-0.1730653 -0.16626368 -0.26403704 0.26157123 -0.070067495 0.28048763 -0.04869104 -0.19042526
0.0124769285 -0.180185 -0.16856027 0.21888515 -0.11319393 -0.1902264 0.18496625 -0.24100557
0.016043331 -0.31289992 0.22673218 0.21311766 0.31115898 -0.10995196 -0.09114884 0.16134492
0.18007332 0.024067054 0.3248526 0.3392985 0.15706344 0.09394708 -0.29820898 -0.17500614
-0.055437893 0.25863597 0.041536722 -0.26239854 -0.27245474 -0.16550048 -0.01894159 0.059772708
-0.06733294 0.24563631 0.09106989 0.20673682 0.2554104 -0.037483487 -0.25052354 0.17577472
-0.24471022 -0.059264574 0.15823093 0.028253835 0.09915375 -0.27290207 0.27870327 -0.013325721
0.29667076 0.050521456 0.29383993 0.1721035 0.0057266606 0.2724252 0.1630372 0.20085648
0.25691533 -0.12037228 0.058070555 0.0641074 -0.25275508 0.375696 0.14391385 0.1617331
-0.13898577 -0.04678077 0.19503923 0.038969558 -0.30304933 -0.2940766 -0.06578195 0.16668911
-0.27523276 -0.2933714 -0.067581944 -0.29115853 -0.30462095 0.37271377 -0.14289013 -0.003827901
0.34602123 0.064590044 -0.17450342 -0.022201153 -0.16615403 0.18945375 -0.10790656 -0.13532758
0.24199864 -0.12540847 -0.16528432 0.0038302073 0.31635657 -0.24526878 -0.17946498 -0.29786623
0.19627813 0.0714877 -0.18760464 -0.3123288 0.2632491 -0.16775776 0.38309175 -0.0544516
-0.29524663 0.11015426 -0.033263326 -0.021783736 -0.2230064 0.11305658 -0.16657397 0.33908606
00000000: 3299 5abe ac4a 9e3e 0736 9b3d 42bc ab3e
00000010: 6eff 043e 3ca4 6b3e 3a50 d93c 5573 c9bd
00000020: 3795 573e c26b 85be eeda f23d 4ae7 87bc
00000030: ea0b b03e 6547 61be 54d4 3e3c c8c6 1ebe
00000040: 70a0 8abe de51 b4bc 20c6 353e 3b7d 52bd
00000050: 651a f0bd 2fbe 8cbe e6b4 6abe 865b 783d
00000060: e39c e73d 896c 8ebe 09eb 50bd d502 de3d
00000070: f070 9f3e 3529 3d3e fc53 c6bd b41b a3bd
00000080: 04ca b4bd a78d a53e 7b2f 873d 77b7 cebd
00000090: 7678 933e ebf5 b9bc ee47 853e b966 ac3e
000000a0: 3a5f 863e 5ad8 2abe 6bc3 543e 0c09 7f3e
000000b0: d8b9 c33e 64ee 863e 075b 823e 82fa e03d
000000c0: 22aa a23e 75ab a93e deb5 9e3d 1f84 bfbc
000000d0: 4bf9 7d3e 43c8 123a d222 4a3e d29b 053e
000000e0: ec51 ca3d e725 d6bd 7ae6 943e 4e22 51be
000000f0: efcb 0d3e 381c 88be 9bb0 853e abec 8b3e
00000100: 0712 bf3d 7c7e 7f3e bd3c 7fbc 024f 1fbd
00000110: ff0e 08bc 5ae9 023d 172e 4dbd 16c9 963e
00000120: 2dec 5e3e 0467 203d 7b71 b1bb 9db6 75be
00000130: ab43 4dbe cac9 8f3d a634 79be 091f 3ebd
00000140: e634 ee3d baec 953d 6f93 b7bd 817b 82be
00000150: aec7 b93d b7ce b0bd e31a 33be 215f 4d3d
00000160: abc9 a63d fd32 7bbe 6a87 94be 1869 82be
00000170: da80 9dbd ec03 353d 4277 85be 6791 803e
00000180: abd3 a6be 59e5 a93e 284f b23e 6dff 1fbe
00000190: 7389 9f3e c0c1 913d 73f8 7dbe ae10 e03d
000001a0: b811 02bc 5181 263e 1654 053e d6a1 27bd
000001b0: 7db2 173d d143 9b3e 562d 72be 887a b3bc
000001c0: b472 34be ed24 89be 938a 3d3e b22b 95bd
000001d0: bcc2 1abe 0905 90be c655 233c cb0a 43be
000001e0: 5e42 593e 2e99 813e 7856 753e 1f87 37bd
000001f0: f705 8c3c 28f6 70be 5024 a63e 379b 003e
00000200: af6a 083e db2d 743d bc51 4e3d e60f b13c
00000210: 8b8f 8cbe ffc4 95bd 3810 3fbe 02a2 a23e
00000220: 0838 31be 0741 2abe dd2f 87be aaec 853e
00000230: 8c7f 8fbd 139c 8f3e 4270 47bd d7fe 42be
00000240: 086c 4c3c 6b82 38be 109b 2cbe 6e23 603e
00000250: 38d2 e7bd b6ca 42be cb67 3d3e 2aca 76be
00000260: 4e6d 833c 6b34 a0be 7b2c 683e 843b 5a3e
00000270: 3b50 9f3e 7e2e e1bd 3eac babd 9a37 253e
00000280: 2465 383e 4528 c53c 1453 a63e 88b8 ad3e
00000290: 3dd5 203e 5467 c03d d9ae 98be cf34 33be
000002a0: d812 63bd ef6b 843e 6922 2a3d 1a59 86be
000002b0: 307f 8bbe f578 29be 652b 9bbc 3ad4 743d
000002c0: dae5 89bd 1688 7b3e da82 ba3d d1b2 533e
000002d0: 27c5 823e 4988 19bd 9f44 80be 4afe 333e
000002e0: 5195 7abe 69bf 72bd 4a07 223e 9674 e73c
000002f0: 1f11 cb3d d2b9 8bbe 32b2 8e3e 2054 5abc
00000300: 3be5 973e 96ef 4e3d 3072 963e e63b 303e
00000310: b6a6 bb3b 517b 8b3e 39f3 263e 52ad 4d3e
00000320: 688a 833e be85 f6bd 64db 6d3d be4a 833d
00000330: 1d69 81be 3a5b c03e 275e 133e 5d9d 253e
00000340: 4952 0ebe 319d 3fbd 5db8 473e 8b9e 1f3d
00000350: 4829 9bbe 3591 96be b0b8 86bd 8db0 2a3e
00000360: 4feb 8cbe c734 96be 6768 8abd bb12 95be
00000370: 47f7 9bbe 57d4 be3e ca51 12be 86dd 7abb
00000380: b229 b13e c947 843d 06b1 32be 31df b5bc
00000390: 4824 2abe 2a00 423e 1dfe dcbd 5093 0abe
000003a0: 7ece 773e 146b 00be 4b40 29be 3704 7b3b
000003b0: 7df9 a13e bd27 7bbe abc5 37be ec81 98be
000003c0: 22fd 483e 2568 923d 6e1b 40be 8fe9 9fbe
000003d0: 96c8 863e b1c8 2bbe 9a24 c43e a408 5fbd
000003e0: 912a 97be 8f98 e13d 203f 08bd ce73 b2bc
000003f0: ca5b 64be 358a e73d 5e92 2abe b09c ad3e

linear2.weight f4 [3, 256]
-0.11737877 -0.0886105 0.021819957 -0.115711726 -0.045756526 0.00868252 -0.084834784 0.020874318
0.072229765 0.037366733 0.014717516 -0.009742289 -0.08508787 -0.03994171 -0.056939676 -0.08225764
0.023458458 -0.030289985 -0.053458378 0.029655296 0.03542631 0.037917975 -0.03734453 -0.0034207439
0.020334963 0.009905544 0.108104184 -0.0150624085 -0.08116486 -0.038762484 0.046945743 -0.017797157
-0.0076731853 -0.10464291 0.0013297716 0.059198223 0.008810123 -0.042733938 -0.02538474 -0.08518392
-0.08278689 0.06503404 -0.05850202 -0.030185731 -0.060168777 -0.00968026 -0.026089 -0.07449368
-0.09468602 -0.11152707 -0.097001016 -0.059081104 0.010497594 -0.051770017 0.009062319 0.0010878087
-0.012753321 -0.06518134 -0.034225278 0.05330987 -0.044873312 -0.060255334 -0.029988492 -0.031058077
-0.06173729 -0.027928684 -0.046095904 -0.08440833 0.007032255 -0.115444824 -0.0023763273 -0.05962362
-0.12778138 -0.09090481 -0.04897888 0.031934302 -0.06420948 -0.09265742 -0.09435872 -0.01719865
-0.056994464 0.0069520567 -0.073075816 -0.03661468 -0.05032862 0.0224984 -0.04194722 -0.09964712
0.03105971 -0.034448627 0.062176064 0.0049894587 -0.097208254 -0.07955061 0.0068836724 -0.07753974
-0.006759402 -0.05589404 -0.11749256 0.01619022 -0.0774347 0.0130573725 0.02602141 -0.12371235
-0.035715926 -0.1110868 -0.014859676 0.018777726 -0.03651195 -0.028668078 0.015540616 0.02602966
-0.0267312 0.021822779 0.017217532 -0.05448025 -0.007509749 0.021702379 -0.028747685 -0.071766205
0.009529479 0.041248202 -0.025640428 -0.07481427 -0.10401338 -0.037890732 -0.05717089 -0.00058092235
0.0009636168 -0.011806419 0.012525728 -0.1259601 -0.008853532 -0.03576079 0.038807858 0.010923664
-0.061853975 0.071929514 -0.033766054 -0.026784584 -0.095385686 -0.067931674 0.025281241 -0.06898646
-0.023129407 -0.043877807 0.06094486 -0.08947698 -0.003988253 -0.008583703 -0.073634274 0.007140634
0.01983505 -0.019124074 0.04621611 -0.020201731 -0.060787775 0.068734676 0.074174844 0.0012552406
0.013955624 -0.0013941706 -0.106660545 -0.12131098 -0.079138644 0.05274254 -0.006436939 0.0010937974
0.02398589 -0.0290982 -0.04157625 -0.045929 0.023485208 0.032545507 -0.024286969 -0.049439106
-0.035198912 -0.08025501 -0.05336309 0.010991167 0.11956453 -0.065784834 -0.0070629567 -0.032458737
-0.08411099 -0.016803432 -0.03693815 -0.046801046 -0.017978875 0.023025393 -0.011415328 -0.07602019
-0.038813062 0.03490086 -0.09104912 -0.032259315 -0.035854008 -0.124124534 0.0070817512 -0.029357746
-0.021162735 -0.06914881 -0.0419399 0.009375318 0.015815303 -0.08518756 0.047218863 0.023224296
-0.006091204 -0.006853515 -0.057002623 -0.045047335 0.023761394 -0.0010889918 -0.1099755 -0.03289975
0.023837773 -0.043201137 -0.02782868 -0.01593449 0.019034673 -0.06806025 0.029853728 -0.03077164
-0.120102815 -0.042691696 0.08227124 -0.02091692 -0.03331608 -0.0266832 -0.003246933 0.038253065
-0.09056156 -0.11937019 0.039858684 -0.00426495 -0.08141019 -0.065293714 4.283139e-05 -0.038933575
-0.0785874 -0.044806756 -0.119796835 -0.007213865 -0.09309991 0.013385103 -0.1148756 0.016415859
-0.0033599266 -0.096219525 -0.0027227474 0.0041893595 0.029830175 -0.06906424 -0.04502685 -0.08172044
00000000: 4864 f0bd 6c79 b5bd c4bf b23c 45fa ecbd
00000010: 326b 3bbd 2141 0e3c dcbd adbd 9e00 ab3c
00000020: 33ed 933d dc0d 193d bc21 713c 1f9e 1fbc
00000030: 8d42 aebd eb99 23bd 9439 69bd b276 a8bd
00000040: f42b c03c b422 f8bc 2cf7 5abd aaef f23c
00000050: 2e1b 113d e14f 1b3d 94f6 18bd 8f2e 60bb
00000060: 8295 a63c dd4a 223c ba65 dd3d 52c8 76bc
00000070: c339 a6bd 69c5 1ebd 2e4a 403d 58cb 91bc
00000080: 586f fbbb 064f d6bd bb4b ae3a d679 723d
00000090: 5658 103c c809 2fbd a9f3 cfbc e874 aebd
000000a0: 2c8c a9bd 9130 853d d09f 6fbd 1148 f7bc
000000b0: 8973 76bd f499 1ebc 99b8 d5bc 2490 98bd
000000c0: beea c1bd 4e68 e4bd 78a8 c6bd 07ff 71bd
000000d0: 1afe 2b3c cc0c 54bd 1f7a 143c ce94 8e3a
000000e0: 4ef3 50bc cb7d 85bd ce2f 0cbd 735b 5a3d
000000f0: 14cd 37bd 4cce 76bd 6daa f5bc 826d febc
00000100: 3ee0 7cbd b2ca e4bc 0fcf 3cbd 46de acbd
00000110: d56e e63b 566e ecbd 28bc 1bbb e637 74bd
00000120: 1fd9 02be 4d2c babd 149e 48bd 8bcd 023d
00000130: 4380 83bd 2cc3 bdbd 253f c1bd 2fe4 8cbc
00000140: 0773 69bd 14ce e33b c6a8 95bd 46f9 15bd
00000150: 6225 4ebd 914e b83c d9d0 2bbd ca13 ccbd
00000160: ef70 fe3c 011a 0dbd 54ac 7e3d 9d7e a33b
00000170: 1f15 c7bd 6eeb a2bd 6e90 e13b 28cd 9ebd
00000180: f97d ddbb 26f1 64bd f09f f0bd 5aa1 843c
00000190: 1696 9ebd 97ee 553c da2a d53c e75c fdbd
000001a0: dd4a 12bd 7a81 e3bd 0076 73bc bfd3 993c
000001b0: 8e8d 15bd 51d9 eabc 119e 7e3c 273c d53c
000001c0: 64fb dabc afc5 b23c c80b 8d3c af26 5fbd
000001d0: 5714 f6bb 30c9 b13c 4480 ebbc 29fa 92bd
000001e0: 8821 1c3c e0f3 283d e00b d2bc 3938 99bd
000001f0: f804 d5bd 5033 1bbd 062c 6abd 0a49 18ba
00000200: 3b9b 7c3a b66f 41bc b638 4d3c affb 00be
00000210: 680e 11bc e879 12bd fdf4 1e3d 2bf9 323c
00000220: 985a 7dbd c84f 933d 464e 0abd 586b dbbc
00000230: 9259 c3bd c31f 8bbd 9b1a cf3c c648 8dbd
00000240: e279 bdbc 37b9 33bd 51a1 793d b53f b7bd
00000250: e4af 82bb a9a2 0cbc 91cd 96bd fbfb e93b
00000260: 1d7d a23c 17aa 9cbc 1b4d 3d3d 1a7e a5bc
00000270: 9afc 78bd c4c4 8c3d fbe8 973d e386 a43a
00000280: 21a6 643c 9abc b6ba d870 dabd e471 f8bd
00000290: 7113 a2bd 9008 583d f5ec d2bb c05d 8f3a
000002a0: 0f7e c43c 595f eebc dc4b 2abd 0c20 3cbd
000002b0: 0d64 c03c 704e 053d 77f5 c6bc a980 4abd
000002c0: bc2c 10bd bd5c a4bd 4193 5abd 4c14 343c
000002d0: 40de f43d 33ba 86bd 6070 e7bb 74f3 04bd
000002e0: 6242 acbd 5aa7 89bc 754c 17bd 74b2 3fbd
000002f0: 6f48 93bc c09f bc3c 5b07 3bbc 79b0 9bbd
00000300: 72fa 1ebd 34f4 0e3d f677 babd 5822 04bd
00000310: a7db 12bd 0135 febd 090e e83b a87f f0bc
00000320: 795d adbc e49d 8dbd 2cc9 2bbd ef9a 193c
00000330: 188f 813c d176 aebd 9168 413d e140 be3c
00000340: b998 c7bb 7393 e0bb 957b 69bd 8e83 38bd
00000350: 41a7 c23c 80bc 8eba d63a e1bd e3c1 06bd
00000360: 6f47 c33c adf3 30bd f9f8 e3bc 0c89 82bc
00000370: 9aee 9b3c 2c63 8bbd ce8f f43c ce14 fcbc
00000380: 77f8 f5bd 7ddd 2ebd d37d a83d f659 abbc
00000390: 7176 08bd ba96 dabc 7fca 54bb 3faf 1c3d
000003a0: 5778 b9bd 5c78 f4bd dc42 233d fec0 8bbb
000003b0: 63ba a6bd b6b8 85bd dba5 3338 d078 1fbd
000003c0: 6ef2 a0bd 4a87 37bd 0b58 f5bd 4962 ecbb
000003d0: 2aab bebd 314d 5b3c e643 ebbd 8d7a 863c
000003e0: 3732 5cbb be0e c5bd 1f70 32bb e546 893b
000003f0: 695e f43c 8d71 8dbd 136e 38bd 0c5d a7bd

linear2.bias f4 [3]
-0.12010448 -0.050032564 -0.108590834
00000000: 56f9 f5bd f2ee 4cbd df64 debd
